…
on":{"iopub.status.busy":"2023-01-26T11:05:02.888134Z","iopub.execute_input":"2023-01-26T11:05:02.888801Z","iopub.status.idle":"2023-01-26T11:05:02.906294Z","shell.execute_reply.started":"2023-01-26T11:05:02.888765Z","shell.execute_reply":"2023-01-26T11:05:02.905093Z"},"trusted":true},"execution_count":101,"outputs":[{"name":"stdout","text":"Model: \"sequential_26\"\n_________________________________________________________________\nLayer (type)                 Output Shape              Param #   \n=================================================================\nrescaling_16 (Rescaling)     (None, 224, 224, 3)       0         \n_________________________________________________________________\nresnet50 (Functional)        (None, 7, 7, 2048)        23587712  \n_________________________________________________________________\nglobal_average_pooling2d_14  (None, 2048)              0         \n_________________________________________________________________\nflatten_16 (Flatten)         (None, 2048)              0         \n_________________________________________________________________\nbatch_normalization_42 (Batc (None, 2048)              8192      \n_________________________________________________________________\ndense_44 (Dense)             (None, 512)               1049088   \n_________________________________________________________________\nbatch_normalization_43 (Batc (None, 512)               2048      \n_________________________________________________________________\ndense_45 (Dense)             (None, 256)               131328    \n_________________________________________________________________\nbatch_normalization_44 (Batc (None, 256)               1024      \n_________________________________________________________________\ndense_46 (Dense)             (None, 64)                16448     \n_________________________________________________________________\nbatch_normalization_45 (Batc (None, 64)                256       \n_________________________________________________________________\ndense_47 (Dense)             (None, 3)                 195       \n=================================================================\nTotal params: 24,796,291\nTrainable params: 1,202,819\nNon-trainable params: 23,593,472\n_________________________________________________________________\n","output_type":"stream"}]},{"cell_type":"code","source":"\nfrom keras.callbacks import EarlyStopping, ModelCheckpoint\ncall  = [\n    EarlyStopping(monitor='val_loss',
…
